…
Chapter 11 Deep Learning Using Keras anD tensorFLow 

11.4.5 The Keras Model 
The Keras model defined in terms of its inputs and outputs. The model minimizes the logloss, 
which is equivalent to minimizing the binary cross entropy using the Adam optimizer. 

model <-keras_model(list(input1, input2), output) 

model %>% compile( 

optimizer = "adam", 

metrics = list(acc = metric_binary_accuracy), 

loss = "binary_crossentropy" 
) 

11.4.6 The Model Summary 
summary(model) 

Layer (type) Output Shape Param Connected to 
============================================================== 
input_question1 (In (None, 20) 0 

input_question2 (In (None, 20) 0 

embedding_3 (Embedd (None, 20, 12 640025 input_question1[0][0] 
input_question2[0][0] 

lstm_3 (LSTM) (None, 128) 131584 embedding_3[0][0] 
embedding_3[1][0] 

dot_3 (Dot) (None, 1) 0 lstm_3[0][0] 
lstm_3[1][0] 

dense_4 (Dense) (None, 1) 2 dot_3[0][0] 
============================================================== 
Total params: 6,531,842 
Trainable params: 6,531,842 
Non-trainable params: 0 


Chapter 11 Deep Learning Using Keras anD tensorFLow 

11.4.7 The Validation Sample 
Sample for validation before model fitting: 

set.seed(1817328) 
val_sample <-sample.int(nrow(question1_padded), 
size = 0.1*nrow(question1_padded)) 

train_question1_padded <- question1_padded[-val_sample,] 
…
